…
6.5 Adding a classification head
--------------------------------

.. figure:: https://img.zhaoweiguo.com/uPic/2024/12/uGQchL.png

    Figure 6.9 Adapting a GPT model for spam classification by altering its architecture. Initially, the model’s linear output layer mapped 768 hidden units to a vocabulary of 50,257 tokens. To detect spam, we replace this layer with a new output layer that maps the same 768 hidden units to just two classes, representing “spam” and “not spam.”


OUTPUT LAYER NODES
^^^^^^^^^^^^^^^^^^

* print the model architecture via print(model)

.. code-block:: python

    GPTModel(
      (tok_emb): Embedding(50257, 768)
      (pos_emb): Embedding(1024, 768)
      (drop_emb): Dropout(p=0.0, inplace=False)
      (trf_blocks): Sequential(
        (0): TransformerBlock(
          (att): MultiHeadAttention(
            (W_query): Linear(in_features=768, out_features=768, bias=True)
            (W_key): Linear(in_features=768, out_features=768, bias=True)
            (W_value): Linear(in_features=768, out_features=768, bias=True)
            (out_proj): Linear(in_features=768, out_features=768, bias=True)
            (dropout): Dropout(p=0.0, inplace=False)
          )
          (ff): FeedForward(
            (layers): Sequential(
              (0): Linear(in_features=768, out_features=3072, bias=True)
              (1): GELU()
              (2): Linear(in_features=3072, out_features=768, bias=True)
            )
          )
          (norm1): LayerNorm()
          (norm2): LayerNorm()
          (drop_resid): Dropout(p=0.0, inplace=False)
        )
       ... ... # 省略11个
      )
      (final_norm): LayerNorm()
      (out_head): Linear(in_features=768, out_features=50257, bias=False)
    )



FINE-TUNING SELECTED LAYERS VS. ALL LAYERS
^^^^^^^^^^^^^^^^^^^^^^^^^^^^^^^^^^^^^^^^^^


* The goal is to replace and finetune the output layer
* To achieve this, we first freeze the model, meaning that we make all layers non-trainable::

    for param in model.parameters():
        param.requires_grad = False

Then, we replace the output layer (`model.out_head`)::
…
    total_params = sum(p.numel() for p in model.parameters() if p.requires_grad)
    print(f"Total trainable parameters after: {total_params:,}")
    # 输出
    # Total trainable parameters before: 124,441,346
    # Total trainable parameters after: 0


.. code-block:: python

    replace_linear_with_lora(model, rank=16, alpha=16)

    total_params = sum(p.numel() for p in model.parameters() if p.requires_grad)
    print(f"Total trainable LoRA parameters: {total_params:,}")
    # 输出
    # Total trainable LoRA parameters: 2,666,528


* 打印看下现在模型的结构

.. code-block:: python

    GPTModel(
      (tok_emb): Embedding(50257, 768)
      (pos_emb): Embedding(1024, 768)
      (drop_emb): Dropout(p=0.0, inplace=False)
      (trf_blocks): Sequential(
        (0): TransformerBlock(
          (att): MultiHeadAttention(
            (W_query): LinearWithLoRA(
              (linear): Linear(in_features=768, out_features=768, bias=True)
              (lora): LoRALayer()
            )
            (W_key): LinearWithLoRA(
              (linear): Linear(in_features=768, out_features=768, bias=True)
              (lora): LoRALayer()
            )
            (W_value): LinearWithLoRA(
              (linear): Linear(in_features=768, out_features=768, bias=True)
              (lora): LoRALayer()
            )
            (out_proj): LinearWithLoRA(
              (linear): Linear(in_features=768, out_features=768, bias=True)
              (lora): LoRALayer()
            )
            (dropout): Dropout(p=0.0, inplace=False)
          )
          (ff): FeedForward(
            (layers): Sequential(
              (0): LinearWithLoRA(
                (linear): Linear(in_features=768, out_features=3072, bias=True)
                (lora): LoRALayer()
              )
              (1): GELU()
              (2): LinearWithLoRA(
                (linear): Linear(in_features=3072, out_features=768, bias=True)
                (lora): LoRALayer()
              )
            )
          )
          (norm1): LayerNorm()
          (norm2): LayerNorm()
          (drop_resid): Dropout(p=0.0, inplace=False)
        )
        ... ... # 省略11个
      )
      (final_norm): LayerNorm()
      (out_head): LinearWithLoRA(
        (linear): Linear(in_features=768, out_features=2, bias=True)
        (lora): LoRALayer()
      )
    )

* 同样的调优步骤::


    optimizer = torch.optim.AdamW(model.parameters(), lr=5e-5, weight_decay=0.1)

    num_epochs = 5
    train_losses, val_losses, train_accs, val_accs, examples_seen = train_classifier_simple(
        model, train_loader, val_loader, optimizer, device,
        num_epochs=num_epochs, eval_freq=50, eval_iter=5,
…
